remi/svm_weights_poly3.npy (npy, 1160 bytes, 1 tensors)

array (column-major) f8 [43, 3]
-0.9998061639852522 0.00038767202946309953 0.0014214641080312694 0.0002584480196420417 0.0019383601473153527 0.0006461200491051146 0.0002584480196420659 0.00025844801964205604
0.00142146410803124 -0.0018091361374943102 3.0084471934640023e-18 -0.0006461200491051484 -0.0009045680687471839 0.0002584480196420649 -0.0003876720294630801 0.0007753440589261644
0.0002584480196420488 0.0027137042062415156 -0.0011630160883892074 0.00116301608838922 -0.0020675841571364093 0.0006461200491051097 -0.0006461200491051249 0.0009045680687471863
-0.008270336628545491 -0.000129224009821027 0.00038767202946305194 0.001163016088389248 -0.0007753440589261414 -0.0009045680687471772 -0.002713704206241545 0.000516896039284066
0.001550688117852299 0.0012922400982102423 0.0006461200491051038 0.00012922400982102534 -0.001163016088389226 0.0002584480196420503 -0.00012922400982101422 0.001809136137494334
0.00025844801964205105 0.001421464108031269 -0.0010337920785681847 -0.9050849647864591 -0.3197002002972174 -0.24655941073851304 -0.13400529818440232 -0.1183691929960573
-0.0855462945015189 -0.058150804419462195 -0.16372682044323927 0.02830005815080437 0.1586870840602167 0.053498740065903994 -0.044711507398074626 -0.0651289009497984
-0.019642049492796125 0.20197712735026102 0.3270659688570132 0.1491245073334635 -0.09575499127737742 -0.03812108289720141 0.19654971893778056 0.5352458486786741
0.42928216062544766 0.2243328810492971 -0.05026813982037869 -0.00206758415713637 -0.18504878206371292 0.12495961749692915 0.07339923757834085 0.03256445047489833
-0.03256445047489808 -0.0059443044517671385 -0.1634683724235949 0.02519868191509985 0.08929379078632935 0.027395490082057026 -0.026103249983847044 -0.00684887252051429
-0.32680752083736886 -0.1922853266136819 -0.16708664469858595 -0.05362796407572507 -0.05995994055695719 -0.015377657168701857 -0.5351166246688627 0.42798992052723506
0.3310719131614595 0.22213607288234372 0.05000969180073641 0.1368482264004661 0.04005944304451745 0.28002842928216176 -0.22704658525554183 -0.0733992375783412
-0.08554629450151659 0.0960134392970219 0.06306131679266037 0.10880661626930196 -0.2908832461071291 -0.5166375912644621 -0.12159979324158479 0.06047683659623974
0.05000969180073662 -0.19797118304581318 -0.28597273373393145 -0.638366608515867 -0.10260386379789234 0.02261420171867936 0.02920462621955131 0.13762357045939053
-0.1559733798539777 -0.2736964528009314 -0.027783162111520446 0.05065581184984182 0.006202752471409219 0.09045680687471776 -0.16269302836467237 -0.05220649996769367
-0.07003941332299632 0.04871745170252626 0.011371712864250262 0.3516185307230122 0.3653162757640391 0.21722556050914224 0.024164889836531638 0.04729598759449513
0.013439297021386472
00000000: e6fc 147f 69fe efbf aa7f 28b0 0e68 393f
00000010: a3c8 cf76 0d4a 573f aba8 c5ca 09f0 303f
00000020: f89c 325c 12c2 5f3f 3513 773d 0c2c 453f
00000030: 69aa c5ca 09f0 303f b3a9 c5ca 09f0 303f
00000040: 1cc8 cf76 0d4a 573f 7fe7 d922 11a4 5dbf
00000050: 99ac 9bbe 7ebf 4b3c 6c14 773d 0c2c 45bf
00000060: 88e8 d922 11a4 4dbf 56aa c5ca 09f0 303f
00000070: 447e 28b0 0e68 39bf 6a7e 28b0 0e68 493f
00000080: 2da9 c5ca 09f0 303f 136e 23da 0c3b 663f
00000090: 1b5e 1e04 0b0e 53bf 555e 1e04 0b0e 533f
000000a0: 59a9 c5ca 09f0 60bf 0713 773d 0c2c 453f
000000b0: 9413 773d 0c2c 45bf 9fe8 d922 11a4 4d3f
000000c0: 05a9 c5ca 09f0 80bf 8da9 c5ca 09f0 20bf
000000d0: 3c7c 28b0 0e68 393f d65e 1e04 0b0e 533f
000000e0: 967d 28b0 0e68 49bf 4be8 d922 11a4 4dbf
000000f0: 576e 23da 0c3b 66bf 0aa8 c5ca 09f0 403f
00000100: e17d 28b0 0e68 593f 7113 773d 0c2c 553f
00000110: d112 773d 0c2c 453f 50a9 c5ca 09f0 203f
00000120: 715e 1e04 0b0e 53bf 49a9 c5ca 09f0 303f
00000130: b6a7 c5ca 09f0 20bf ede7 d922 11a4 5d3f
00000140: 57a9 c5ca 09f0 303f a1c8 cf76 0d4a 573f
00000150: fda8 c5ca 09f0 50bf 2f7e 7bbe 74f6 ecbf
00000160: d546 33d4 f775 d4bf 034c d23e 428f cfbf
00000170: 94ab 98ea 1527 c1bf 60a0 c584 714d bebf
00000180: f491 2da9 5ce6 b5bf 1174 6f36 f1c5 adbf
00000190: 4411 a41d 00f5 c4bf 7b2f eec0 b0fa 9c3f
000001a0: b409 2bbe db4f c43f 88a7 ebd5 2f64 ab3f
000001b0: c226 0f3c 6de4 a6bf 2093 9aa3 49ac b0bf
000001c0: 5eb9 caa0 0b1d 94bf f633 41f2 62da c93f
000001d0: fc06 f819 a6ee d43f 58c1 0309 8316 c33f
000001e0: e110 f72b 6683 b8bf 82c5 a948 9b84 a3bf
000001f0: e218 708b 8a28 c93f 23a1 ece6 bb20 e13f
00000200: fe1e 29e2 5b79 db3f a218 c399 f0b6 cc3f
00000210: 2f5a 1ee1 bebc a9bf fea8 c5ca 09f0 60bf
00000220: 6d6b 90b1 adaf c7bf 9d50 787e 5afd bf3f
00000230: 6647 f3dc 4aca b23f a392 9aa3 49ac a03f
00000240: 7f92 9aa3 49ac a0bf 4423 7c13 0e59 78bf
00000250: 1cae be18 88ec c4bf d61f e9ea aecd 993f
00000260: 3ec4 2937 f5db b63f 0960 d737 900d 9c3f
00000270: 1def ff73 cfba 9abf 3060 d737 900d 7cbf
00000280: 6855 8517 6aea d4bf 7f39 a73a ce9c c8bf
00000290: 1116 4a5d 1863 c5bf 396d b6df 1f75 abbf
000002a0: b043 86bf 11b3 aebf 7686 0735 527e 8fbf
000002b0: 1ff5 4fe6 ac1f e1bf c0a7 ebd5 2f64 db3f
000002c0: 89c4 e93f 4830 d53f 2451 2570 f46e cc3f
000002d0: bbce 88cd de9a a93f e3ea 7320 3e84 c13f
000002e0: cd5a 8bdb ab82 a43f 84e5 6d5c fceb d13f
000002f0: cea6 2bcd dc0f cdbf 7f47 f3dc 4aca b2bf
00000300: 4d91 2da9 5ce6 b5bf 39d7 c135 5694 b83f
00000310: 6165 4455 c924 b03f 0e0f 771a c0da bb3f
00000320: 0c01 3fc3 d49d d2bf bcae cb8e 4b88 e0bf
00000330: aa47 2cff 2921 bfbf 7559 b1e6 d1f6 ae3f
00000340: d9ce 88cd de9a a93f a4b8 5da6 1e57 c9bf
00000350: 3fd6 bb94 604d d2bf 04e4 4dcf 7f6d e4bf
00000360: 1187 742f 3f44 babf 663d 3a63 2d28 973f
00000370: 79fe 044a d1e7 9d3f 2313 242f a69d c13f
00000380: 567c c28a eff6 c3bf d5ea 7320 3e84 d1bf
00000390: 6402 9872 3073 9cbf 32ab 7efe 8eef a93f
000003a0: fb7d 28b0 0e68 793f 7d3d 3a63 2d28 b73f
000003b0: 2086 0e0a 20d3 c4bf e1ee ff73 cfba aabf
000003c0: 663e a75d 1aee b1bf 2d16 9d6b 7ef1 a83f
000003d0: e1c8 cf76 0d4a 873f bcdd 8702 eb80 d63f
000003e0: 9f98 4684 5761 d73f 01fb 1e13 0cce cb3f
000003f0: 3ec5 3c4e aebe 983f fc97 e6ff 2d37 a83f
00000400: c432 81e9 0f86 8b3f
