remi/svm_weights_poly3.npy (npy, 340688 bytes, 1 tensors)

array (column-major) f8 [14190, 3]
0	0xbf6b49b05f0975f1	-0.0033310360670799556
1	0xbf54b37cf8a614fd	-0.0012634964392373431
2	0x3f73321223130474	0.0046864231564437316
3	0xbf557432636f9bc5	-0.0013094417643004657
4	0x3f53c29a332a2bb5	0.0012060647829083952
5	0xbf6c9aedd9ea275b	-0.0034918447048015006
6	0xbf52715cb8497d8d	-0.0011256604640478036
7	0xbf67fe96abd7c4f7	-0.0029290144727772654
8	0xbf61f8eb558b8790	-0.0021938892717665096
9	0xbf60475325461775	-0.0019871353089823637
10	0x3f75c881c227c88b	0.005318171376062729
11	0xbf6dbbfdfa1870aa	-0.0036296806799907726
12	0x3f5a88faf43ff15f	0.001619572708476978
13	0xbf65d48d18d4605d	-0.0026648288536641877
14	0xbf7749ec97bad790	-0.005685733976568033
15	0x3f5d5ba344b3abd7	0.0017918676774637454
16	0x3f47b652a3cc33c9	0.0007236388697450187
17	0xbf63aa8385d0f971	-0.0024006432345508523
18	0x3f5b1983045716a4	0.00165403170227433
19	0xbf74a771a1f97c93	-0.005042499425683594
20	0xbf854a0ab4138714	-0.010395129795543613
21	0x3f62412f5d971a7b	0.002228348265563893
22	0xbf823b29b240cf0b	-0.008901906730990136
23	0xbef816ad593101da	-2.297266253159674e-05
24	0xbf61c8bdfad926dc	-0.0021709166092350584
25	0xbf746b38f09a8213	-0.004985067769354606
26	0xbf5ffe1e3a750729	-0.0019526763151848736
27	0x3f739e782f245f4a	0.00478980013783554
28	0x3f64834f9df3b107	0.0025040202159428734
29	0xbf31504c981b2fd3	-0.0002641856191132306
30	0x3f2b198304571645	0.00020675396278428869
31	0xbf618079f2cd92c2	-0.0021364576154375434
32	0xbf5816ad5930f633	-0.0014702504020215445
33	0xbf73cea589d6c265	-0.004835745462898976
34	0x3f619890a026c485	0.0021479439467034255
35	0x3f2816ad5930f3f0	0.00018378130025267737
36	0x3f6f9dc3851042f9	0.003859407305306536
37	0x3f5937bd795f4244	0.0015391683896163336
38	0x3f3f9dc38510445d	0.0004824259131633363
39	0xbf703b47ce997eea	-0.00396278428669892
40	0xbf5c6ac07f37c353	-0.00173443602113484
41	0xbf5877080e95bb3e	-0.0014932230645531975
42	0x3f69b02edc1d36c9	0.0031357684355616017
43	0xbf814441416e991f	-0.008430967149092581
44	0x3f48d762c3fa8047	0.0007580978635424251
45	0xbf1816ad5930eaad	-9.189065012630655e-05
46	0x3f6c3a932485602c	0.003445899379737957
47	0xbf74834f9df3b3d0	-0.005008040431886365
48	0xbf457432636f9aab	-0.0006547208821502023
49	0x3f90ced2b45bcc67	0.016413967378820973
50	0xbf6755f7ee676fb8	-0.002848610153916877
51	0xbf6b91f467150be3	-0.0033654950608776753
52	0x3f70838bd6a50ff3	0.004031702274293269
53	0xbf5f3d68cfab7ed3	-0.0019067309901216647
54	0x3f888f1ebbeeec39	0.011991729841488762
55	0x3f90d1d58a06ef70	0.016425453710084026
56	0xbf811a199212837c	-0.008350562830232049
57	0x3f622918b03de9ab	0.0022168619342981164
58	0xbf66f59d3902ab53	-0.002802664828853643
59	0xbf66ad5930f71979	-0.002768205835056378
60	0xbf646b38f09a8161	-0.002492533884677226
61	0xbf9204f6ac381fb1	-0.017597059499194937
62	0xbf6422f4e88eeef7	-0.0024580748908798983
63	0xbf80899181fb5d79	-0.008074890879852902
64	0xbf817a74477745a1	-0.008534344130483986
65	0x3f54b37cf8a6156a	0.0012634964392373668
66	0xbf8059642748fa79	-0.007983000229726077
67	0xbf8e0442022403d7	-0.01465655869515274
68	0xbf7792309fc669c6	-0.005754651964162643
69	0xbf402f3c77ece5b4	-0.0004939122444291206
70	0x3f5c9aedd9ea23a6	0.0017459223524005445
71	0xbf5c3a932485618f	-0.0017229496898690554
72	0x3f732606cc666d07	0.0046749368251781725
73	0x3f7bce2d18740429	0.006788421778083844
74	0x3f71b0a74d7ff4cd	0.004318860555938287
75	0xbf8253405f99ff18	-0.008947852056052905
76	0xbf70535e7bf2afcf	-0.003985756949230492
77	0xbf5c3a9324856070	-0.0017229496898689932
78	0x3f801d2b75ea0131	0.007868136917068643
79	0x3f90d4d85fb216f5	0.016436940041351062
80	0x3f698001816ad49a	0.003112795773029986
81	0xbf69f872e428c96d	-0.0031702274293589545
82	0x3f52a18a12fbdf59	0.0011371467953135898
83	0x3f64834f9df3b2da	0.002504020215943076
84	0x3f6ce331e1f5b969	0.0035263036985987884
85	0x3f76ad5930f71931	0.005536411670112693
86	0x3f76dd868ba97a3d	0.005582356995175672
87	0x3f88dd686f50caf4	0.0121410521479439
88	0x3f6d2b75ea014ac4	0.0035607626923959985
89	0x3f5ae955a9a4b47e	0.0016425453710085243
90	0x3f942f003f3b86f8	0.019710544452101936
91	0x3f65d48d18d460ee	0.0026648288536642506
92	0xbf502f3c77ece525	-0.0009878244888582102
93	0x3f8a047e3ad56436	0.012703882379968428
94	0xbf1b198304571cd4	-0.0001033769813921671
95	0x3f83805bd674e37d	0.009522168619342736
96	0x3f6c227c772c2f20	0.003434413048472154
97	0xbf5ccb1b349c886d	-0.0017574086836664963
98	0x3f57e67ffe7e948a	0.0014587640707557658
99	0x3f806b75294be03b	0.008017459223523917
100	0x3f6d2b75ea014bd6	0.0035607626923961173
101	0x3f6ec4f76ced8a21	0.0037560303239143754
102	0xbf70233121404d83	-0.003939811624167236
103	0xbf744716ec94b757	-0.004950608775556939
104	0x3f7f255222524ee2	0.007603951297955299
105	0xbf718079f2cd9331	-0.004272915230875183
106	0x3f6453224341507c	0.00248104755341144
107	0xbf657432636f9a20	-0.002618883528600749
108	0xbf5edd0e1a46bbf9	-0.0018837583275901333
109	0xbf7a28a03edb2c4d	-0.0063864001837812935
110	0x3f6cfb488f4ee836	0.0035377900298643418
111	0xbf2e1c58af7d35e5	-0.00022972662531588122
112	0xbf7f497426581826	-0.007638410291752639
113	0x3f6301e4c860a200	0.0023202389156902203
114	0x3f4a58cd998d8f82	0.000804043188605594
115	0xbf7f497426581785	-0.0076384102917525
116	0xbf6259460af04c90	-0.002239834596829811
117	0x3f34532243414f1a	0.0003101309441764108
118	0xbf836845291bb369	-0.009476223294279955
119	0x3f3d5ba344b3adb5	0.00044796691936596227
120	0xbf785ef1613c8a23	-0.005949919595681172
121	0xbf803b47ce997dfc	-0.007925568573397428
122	0x3f65bc766b7b2e72	0.002653342522398288
123	0x3f73aa8385d0f92b	0.004801286469101644
124	0x3f7f315d78fee936	0.007615437629221502
125	0xbf63926cd877c8a5	-0.0023891569032850773
126	0xbf719890a026c48f	-0.00429588789340686
127	0x3f70fbfd3963068e	0.0041465655869516015
128	0x3ee816ad59310485	1.1486331265799527e-05
129	0x3f53321223130510	0.0011716057891109667
130	0x3f769542839de8c1	0.005513439007581223
131	0x3f806b75294be000	0.008017459223523815
132	0xbf4c9aedd9ea259d	-0.0008729611762003268
133	0x3f4bda386f209d38	0.0008499885136687207
134	0xbf63321223130544	-0.002343211578221956
135	0x0000000000000000	0.0
136	0x3f71e0d4a832587f	0.004364805881001853
137	0xbf72ad9569a8784e	-0.004560073512520258
138	0xbf55440508bd3a8f	-0.001297955433034712
139	0xbf67ce6951256447	-0.002906041810245816
140	0x3f62e9ce1b077216	0.0023087525844245433
141	0x0000000000000000	0.0
142	0xbf7ffe1e3a750856	-0.0078107052607397556
143	0x3f602f3c77ece69f	0.0019756489777165843
144	0x3f64fbc100b1a6be	0.0025614518722719406
145	0x3f5877080e95bc03	0.0014932230645532403
146	0xbf73dab0e0835bc5	-0.004847231794164968
147	0x0000000000000000	0.0
148	0xbf8731d5ea61a633	-0.011325522628072715
149	0xbf5bda386f209deb	-0.0016999770273374802
150	0x3f64834f9df3b342	0.002504020215943121
151	0xbf71bcb2a42c8e75	-0.004330346887204341
152	0xbf60bfc488040bb8	-0.0020445669653112696
153	0x0000000000000000	0.0
154	0xbf6ccb1b349c8767	-0.003514817367332879
155	0xbf63f2c78ddc8c22	-0.0024351022283482108
156	0xbf72e9ce1b0771a3	-0.004617505168848987
157	0x3f6f0d3b74f91e07	0.003790489317711868
158	0x3f3edd0e1a46bd7c	0.0004709395818975543
159	0x0000000000000000	0.0
160	0xbf6c52a9d1de928f	-0.0034573857110039084
161	0x3f64fbc100b1a6b3	0.002561451872271936
162	0xbf75803dba1c364d	-0.005249253388468112
163	0x3f62d1b76dae3fc4	0.002297266253158599
164	0x3f63623f7dc56649	0.0023661842407534423
165	0x0000000000000000	0.0
166	0xbf85aa6569784b1b	-0.010578911095796386
167	0xbf7d1f6a9354b08e	-0.0071100390535258195
168	0x3f5e7cb364e1f7c8	0.0018607856650585276
169	0x3f86bf6a32f9fe0b	0.011107282334022825
170	0x3f736e4ad47200e0	0.004743854812773146
171	0x3f62b9a0c055114d	0.002285779921893083
172	0x3f58a73569481d60	0.0015047093958190025
173	0x0000000000000000	0.0
174	0x0000000000000000	0.0
175	0xbf6a10899181fa9b	-0.003181713760624772
176	0x3f4998182ec40684	0.0007810705260739713
177	0xbf5ccb1b349c86e0	-0.0017574086836664102
178	0x3f52715cb8497cbe	0.0011256604640477587
179	0x0000000000000000	0.0
180	0x0000000000000000	0.0
181	0x3f52d1b76dae3f87	0.0011486331265792864
182	0xbf7d1f6a9354b27a	-0.007110039053526246
183	0xbf63623f7dc56752	-0.002366184240753557
184	0x3f4cfb488f4ee864	0.0008844475074660904
185	0x0000000000000000	0.0
186	0x0000000000000000	0.0
187	0xbf5f6d962a5de4b7	-0.0019182173213876782
188	0xbf610808900f9e92	-0.0020790259591086458
189	0x3f7f0d3b74f91e2b	0.007580978635423767
190	0x3f65d48d18d46042	0.002664828853664176
191	0x0000000000000000	0.0
192	0x0000000000000000	0.0
193	0xbf794fd426b8728d	-0.006179646220996771
194	0xbf42110202e4b9f4	-0.0005513439007581154
195	0xbf49f872e428ca25	-0.0007925568573397586
196	0xbf4998182ec40685	-0.0007810705260739714
197	0x0000000000000000	0.0
198	0x0000000000000000	0.0
199	0xbf3b1983045716cd	-0.00041350792556858474
200	0xbf6937bd795f4361	-0.003078336779232791
201	0x3f65440508bd3ac3	0.0025959108660694465
202	0x3f71d4c95185bf4a	0.004353319549735899
203	0x0000000000000000	0.0
204	0x0000000000000000	0.0
205	0xbf6725ca93b50d51	-0.0028256374913852374
206	0xbf652bee5b6408df	-0.00258442453480355
207	0xbf5f6d962a5de6d5	-0.0019182173213877958
208	0x3f74b37cf8a615ac	0.005053985756949524
209	0xbf66c56fde50495a	-0.002779692166322051
210	0x0000000000000000	0.0
211	0x0000000000000000	0.0
212	0x0000000000000000	0.0
213	0x3f7fcdf0dfc2a60e	0.007764759935676503
214	0xbf78d762c3fa7ea3	-0.006064782908339036
215	0xbf6301e4c860a31e	-0.0023202389156903444
216	0x0000000000000000	0.0
217	0x0000000000000000	0.0
218	0x0000000000000000	0.0
219	0xbf6f0d3b74f91b2b	-0.0037904893177115504
220	0xbf791fa6cc0611e0	-0.006133700895933875
221	0xbf63aa8385d0f8cf	-0.002400643234550782
222	0x0000000000000000	0.0
223	0x0000000000000000	0.0
224	0x0000000000000000	0.0
225	0xbf649b664b4ce22f	-0.0025155065472086883
226	0xbf7c0a65c9d2ff1f	-0.006845853434412934
227	0xbf610808900f9ec6	-0.0020790259591086683
228	0x0000000000000000	0.0
229	0x0000000000000000	0.0
230	0x0000000000000000	0.0
231	0x3f6ae955a9a4b4d6	0.0032850907420170867
232	0xbf7c9aedd9ea24b6	-0.006983689409602414
233	0x3f5a58cd998d8f31	0.0016080863772111704
234	0x0000000000000000	0.0
235	0x0000000000000000	0.0
236	0x0000000000000000	0.0
237	0x3f5a88faf43fede6	0.0016195727084767852
238	0xbf55d48d18d46001	-0.0013324144268320739
239	0xbf61504c981b328d	-0.0021134849529061473
240	0x0000000000000000	0.0
241	0x0000000000000000	0.0
242	0x0000000000000000	0.0
243	0xbf704753254616a8	-0.0039742706179645496
244	0x3f72ad9569a8763d	0.0045600735125198
245	0x3f5725ca93b50da9	0.0014128187456926378
246	0x0000000000000000	0.0
247	0x0000000000000000	0.0
248	0x0000000000000000	0.0
249	0x0000000000000000	0.0
250	0xbf812c2a941568b9	-0.008385021824029658
251	0x3f5ab9284ef250a8	0.0016310590397426248
252	0x0000000000000000	0.0
253	0x0000000000000000	0.0
254	0x0000000000000000	0.0
255	0x0000000000000000	0.0
